…
Tennsorflow version: 2.7.0

data: (69632, 28, 28, 1)
Model: "autoencoder"
__________________________________________________________________________________________________
 Layer (type)                   Output Shape         Param #     Connected to                     
==================================================================================================
 img (InputLayer)               [(None, 28, 28, 1)]  0           []                               
                                                                                                  
 weight_normalization (WeightNo  (None, 28, 28, 40)  2121        ['img[0][0]']                    
 rmalization)                                                                                     
                                                                                                  
 weight_normalization_1 (Weight  (None, 28, 28, 40)  80121       ['weight_normalization[0][0]']   
 Normalization)                                                                                   
                                                                                                  
 weight_normalization_2 (Weight  (None, 28, 28, 40)  80121       ['weight_normalization_1[0][0]'] 
 Normalization)                                                                                   
                                                                                                  
 max_pooling2d (MaxPooling2D)   (None, 14, 14, 40)   0           ['weight_normalization_2[0][0]'] 
                                                                                                  
 conv2d (Conv2D)                (None, 14, 14, 40)   80          ['img[0][0]']                    
                                                                                                  
 add (Add)                      (None, 14, 14, 40)   0           ['max_pooling2d[0][0]',          
                                                                  'conv2d[0][0]']                 
                                                                                                  
 activation (Activation)        (None, 14, 14, 40)   0           ['add[0][0]']                    
                                                                                                  
 weight_normalization_3 (Weight  (None, 14, 14, 80)  57841       ['activation[0][0]']             
 Normalization)                                                                                   
                                                                                                  
 weight_normalization_4 (Weight  (None, 14, 14, 80)  115441      ['weight_normalization_3[0][0]'] 
 Normalization)                                                                                   
                                                                                                  
 weight_normalization_5 (Weight  (None, 14, 14, 80)  115441      ['weight_normalization_4[0][0]'] 
 Normalization)                                                                                   
                                                                                                  
 conv2d_4 (Conv2D)              (None, 14, 14, 80)   3280        ['activation[0][0]']             
                                                                                                  
 add_1 (Add)                    (None, 14, 14, 80)   0           ['weight_normalization_5[0][0]', 
                                                                  'conv2d_4[0][0]']               
                                                                                                  
 weight_normalization_6 (Weight  (None, 14, 14, 130)  520391     ['add_1[0][0]']                  
 Normalization)                                                                                   
                                                                                                  
 weight_normalization_7 (Weight  (None, 14, 14, 130)  845391     ['weight_normalization_6[0][0]'] 
 Normalization)                                                                                   
                                                                                                  
 weight_normalization_8 (Weight  (None, 14, 14, 130)  845391     ['weight_normalization_7[0][0]'] 
 Normalization)                                                                                   
                                                                                                  
 max_pooling2d_1 (MaxPooling2D)  (None, 7, 7, 130)   0           ['weight_normalization_8[0][0]'] 
                                                                                                  
 conv2d_8 (Conv2D)              (None, 7, 7, 130)    10530       ['add_1[0][0]']                  
                                                                                                  
 add_2 (Add)                    (None, 7, 7, 130)    0           ['max_pooling2d_1[0][0]',        
                                                                  'conv2d_8[0][0]']               
                                                                                                  
 activation_1 (Activation)      (None, 7, 7, 130)    0           ['add_2[0][0]']                  
                                                                                                  
 weight_normalization_9 (Weight  (None, 7, 7, 160)   374881      ['activation_1[0][0]']           
 Normalization)                                                                                   
                                                                                                  
 weight_normalization_10 (Weigh  (None, 7, 7, 160)   461281      ['weight_normalization_9[0][0]'] 
 tNormalization)                                                                                  
                                                                                                  
 weight_normalization_11 (Weigh  (None, 7, 7, 160)   461281      ['weight_normalization_10[0][0]']
 tNormalization)                                                                                  
                                                                                                  
 conv2d_12 (Conv2D)             (None, 7, 7, 160)    20960       ['activation_1[0][0]']           
                                                                                                  
 add_3 (Add)                    (None, 7, 7, 160)    0           ['weight_normalization_11[0][0]',
                                                                  'conv2d_12[0][0]']              
                                                                                                  
 weight_normalization_12 (Weigh  (None, 7, 7, 3)     8650        ['add_3[0][0]']                  
 tNormalization)                                                                                  
                                                                                                  
 conv2d_transpose (Conv2DTransp  (None, 7, 7, 160)   4480        ['weight_normalization_12[0][0]']
 ose)                                                                                             
                                                                                                  
 weight_normalization_13 (Weigh  (None, 7, 7, 160)   461281      ['conv2d_transpose[0][0]']       
 tNormalization)                                                                                  
                                                                                                  
 weight_normalization_14 (Weigh  (None, 7, 7, 160)   461281      ['weight_normalization_13[0][0]']
 tNormalization)                                                                                  
                                                                                                  
 weight_normalization_15 (Weigh  (None, 7, 7, 160)   461281      ['weight_normalization_14[0][0]']
 tNormalization)                                                                                  
                                                                                                  
 conv2d_17 (Conv2D)             (None, 7, 7, 160)    25760       ['conv2d_transpose[0][0]']       
                                                                                                  
 add_4 (Add)                    (None, 7, 7, 160)    0           ['weight_normalization_15[0][0]',
                                                                  'conv2d_17[0][0]']              
                                                                                                  
 weight_normalization_16 (Weigh  (None, 7, 7, 130)   1040391     ['add_4[0][0]']                  
 tNormalization)                                                                                  
                                                                                                  
 weight_normalization_17 (Weigh  (None, 7, 7, 130)   845391      ['weight_normalization_16[0][0]']
 tNormalization)                                                                                  
                                                                                                  
 weight_normalization_18 (Weigh  (None, 7, 7, 130)   845391      ['weight_normalization_17[0][0]']
 tNormalization)                                                                                  
                                                                                                  
 up_sampling2d (UpSampling2D)   (None, 14, 14, 130)  0           ['weight_normalization_18[0][0]']
                                                                                                  
 conv2d_transpose_1 (Conv2DTran  (None, 14, 14, 130)  20930      ['add_4[0][0]']                  
 spose)                                                                                           
                                                                                                  
 add_5 (Add)                    (None, 14, 14, 130)  0           ['up_sampling2d[0][0]',          
                                                                  'conv2d_transpose_1[0][0]']     
                                                                                                  
 activation_2 (Activation)      (None, 14, 14, 130)  0           ['add_5[0][0]']                  
                                                                                                  
 weight_normalization_19 (Weigh  (None, 14, 14, 80)  187441      ['activation_2[0][0]']           
 tNormalization)                                                                                  
                                                                                                  
 weight_normalization_20 (Weigh  (None, 14, 14, 80)  115441      ['weight_normalization_19[0][0]']
 tNormalization)                                                                                  
                                                                                                  
 weight_normalization_21 (Weigh  (None, 14, 14, 80)  115441      ['weight_normalization_20[0][0]']
 tNormalization)                                                                                  
                                                                                                  
 conv2d_24 (Conv2D)             (None, 14, 14, 80)   10480       ['activation_2[0][0]']           
                                                                                                  
 add_6 (Add)                    (None, 14, 14, 80)   0           ['weight_normalization_21[0][0]',
                                                                  'conv2d_24[0][0]']              
                                                                                                  
 weight_normalization_22 (Weigh  (None, 14, 14, 40)  160121      ['add_6[0][0]']                  
 tNormalization)                                                                                  
                                                                                                  
 weight_normalization_23 (Weigh  (None, 14, 14, 40)  80121       ['weight_normalization_22[0][0]']
 tNormalization)                                                                                  
                                                                                                  
 weight_normalization_24 (Weigh  (None, 14, 14, 40)  80121       ['weight_normalization_23[0][0]']
 tNormalization)                                                                                  
                                                                                                  
 up_sampling2d_1 (UpSampling2D)  (None, 28, 28, 40)  0           ['weight_normalization_24[0][0]']
                                                                                                  
 conv2d_transpose_2 (Conv2DTran  (None, 28, 28, 40)  3240        ['add_6[0][0]']                  
 spose)                                                                                           
                                                                                                  
 add_7 (Add)                    (None, 28, 28, 40)   0           ['up_sampling2d_1[0][0]',        
                                                                  'conv2d_transpose_2[0][0]']     
                                                                                                  
 activation_3 (Activation)      (None, 28, 28, 40)   0           ['add_7[0][0]']                  
                                                                                                  
 conv2d_transpose_3 (Conv2DTran  (None, 28, 28, 1)   361         ['activation_3[0][0]']           
 spose)                                                                                           
                                                                                                  
==================================================================================================
Total params: 8,922,155
Trainable params: 4,512,347
Non-trainable params: 4,409,808
…
